…
ective=0.0, flipud=0.0, fliplr=0.5, mosaic=1.0, mixup=0.0, copy_paste=0.0
[34m[1mClearML: [0mrun 'pip install clearml' to automatically track, visualize and remotely train YOLOv3 🚀 in ClearML
[34m[1mTensorBoard: [0mStart with 'tensorboard --logdir paper_yolo', view at http://localhost:6006/
COMET INFO: Experiment is live on comet.com https://www.comet.com/garnierk/paper-yolo/8b6c07a987914802b8d6d320e9e5cbbe

Overriding model.yaml nc=80 with nc=3

                 from  n    params  module                                  arguments                     
  0                -1  1       928  models.common.Conv                      [3, 32, 3, 1]                 
  1                -1  1     18560  models.common.Conv                      [32, 64, 3, 2]                
  2                -1  1     20672  models.common.Bottleneck                [64, 64]                      
  3                -1  1     73984  models.common.Conv                      [64, 128, 3, 2]               
  4                -1  2    164608  models.common.Bottleneck                [128, 128]                    
  5                -1  1    295424  models.common.Conv                      [128, 256, 3, 2]              
  6                -1  8   2627584  models.common.Bottleneck                [256, 256]                    
  7                -1  1   1180672  models.common.Conv                      [256, 512, 3, 2]              
  8                -1  8  10498048  models.common.Bottleneck                [512, 512]                    
  9                -1  1   4720640  models.common.Conv                      [512, 1024, 3, 2]             
 10                -1  4  20983808  models.common.Bottleneck                [1024, 1024]                  
 11                -1  1   5245952  models.common.Bottleneck                [1024, 1024, False]           
 12                -1  1   1574912  models.common.SPP                       [1024, 512, [5, 9, 13]]       
 13                -1  1   4720640  models.common.Conv                      [512, 1024, 3, 1]             
 14                -1  1    525312  models.common.Conv                      [1024, 512, 1, 1]             
 15                -1  1   4720640  models.common.Conv                      [512, 1024, 3, 1]             
 16                -2  1    131584  models.common.Conv                      [512, 256, 1, 1]              
 17                -1  1         0  torch.nn.modules.upsampling.Upsample    [None, 2, 'nearest']          
 18           [-1, 8]  1         0  models.common.Concat                    [1]                           
 19                -1  1   1377792  models.common.Bottleneck                [768, 512, False]             
 20                -1  1   1312256  models.common.Bottleneck                [512, 512, False]             
 21                -1  1    131584  models.common.Conv                      [512, 256, 1, 1]              
 22                -1  1   1180672  models.common.Conv                      [256, 512, 3, 1]              
 23                -2  1     33024  models.common.Conv                      [256, 128, 1, 1]              
 24                -1  1         0  torch.nn.modules.upsampling.Upsample    [None, 2, 'nearest']          
 25           [-1, 6]  1         0  models.common.Concat                    [1]                           
 26                -1  1    344832  models.common.Bottleneck                [384, 256, False]             
 27                -1  2    656896  models.common.Bottleneck                [256, 256, False]             
 28      [27, 22, 15]  1     43080  models.yolo.Detect                      [3, [[10, 13, 16, 30, 33, 23], [30, 61, 62, 45, 59, 119], [116, 90, 156, 198, 373, 326]], [256, 512, 1024]]
Model summary: 270 layers, 62584104 parameters, 62584104 gradients, 156.1 GFLOPs

Transferred 439/445 items from /home/garnierk/links/projects/def-boakes/garnierk/webcam-avalanche-detection/weights/yolov3-spp.pt
…
